08/14 08:52:23 AM | args = Namespace(arch='resnet_20', job_dir='./log/', batch_size=32, epochs=150, lr=0.001, resume=False, gpu='0', dataset='CIFAR10', workers=0, bit=8)
08/14 08:52:24 AM | ==> Building model..
08/14 08:52:24 AM | === Bit width===:8
08/14 08:52:24 AM | ResNet(
  (conv1): Conv2d(3, 64, kernel_size=(3, 3), stride=(1, 1), padding=(1, 1), bias=False)
  (bn1): tdBatchNorm(
    (bn): BatchNorm2d(64, eps=1e-05, momentum=0.1, affine=True, track_running_stats=True)
    (seqbn): SeqToANNContainer(
      (module): BatchNorm2d(64, eps=1e-05, momentum=0.1, affine=True, track_running_stats=True)
    )
  )
  (conv1_s): tdLayer(
    (layer): SeqToANNContainer(
      (module): Conv2d(3, 64, kernel_size=(3, 3), stride=(1, 1), padding=(1, 1), bias=False)
    )
    (bn): tdBatchNorm(
      (bn): BatchNorm2d(64, eps=1e-05, momentum=0.1, affine=True, track_running_stats=True)
      (seqbn): SeqToANNContainer(
        (module): BatchNorm2d(64, eps=1e-05, momentum=0.1, affine=True, track_running_stats=True)
      )
    )
  )
  (relu): LIFSpike()
  (layers): ModuleList()
  (layer1): Sequential(
    (0): BasicBlock(
      (conv1): ReScaWConv()
      (bn1): tdBatchNorm(
        (bn): BatchNorm2d(128, eps=1e-05, momentum=0.1, affine=True, track_running_stats=True)
        (seqbn): SeqToANNContainer(
          (module): BatchNorm2d(128, eps=1e-05, momentum=0.1, affine=True, track_running_stats=True)
        )
      )
      (conv1_s): tdLayer(
        (layer): SeqToANNContainer(
          (module): ReScaWConv()
        )
        (bn): tdBatchNorm(
          (bn): BatchNorm2d(128, eps=1e-05, momentum=0.1, affine=True, track_running_stats=True)
          (seqbn): SeqToANNContainer(
            (module): BatchNorm2d(128, eps=1e-05, momentum=0.1, affine=True, track_running_stats=True)
          )
        )
      )
      (relu1): LIFSpike()
      (conv2): ReScaWConv()
      (bn2): tdBatchNorm(
        (bn): BatchNorm2d(128, eps=1e-05, momentum=0.1, affine=True, track_running_stats=True)
        (seqbn): SeqToANNContainer(
          (module): BatchNorm2d(128, eps=1e-05, momentum=0.1, affine=True, track_running_stats=True)
        )
      )
      (conv2_s): tdLayer(
        (layer): SeqToANNContainer(
          (module): ReScaWConv()
        )
        (bn): tdBatchNorm(
          (bn): BatchNorm2d(128, eps=1e-05, momentum=0.1, affine=True, track_running_stats=True)
          (seqbn): SeqToANNContainer(
            (module): BatchNorm2d(128, eps=1e-05, momentum=0.1, affine=True, track_running_stats=True)
          )
        )
      )
      (relu2): LIFSpike()
      (shortcut): LambdaLayer(
        (lambd): SeqToANNContainer()
      )
    )
    (1): BasicBlock(
      (conv1): ReScaWConv()
      (bn1): tdBatchNorm(
        (bn): BatchNorm2d(128, eps=1e-05, momentum=0.1, affine=True, track_running_stats=True)
        (seqbn): SeqToANNContainer(
          (module): BatchNorm2d(128, eps=1e-05, momentum=0.1, affine=True, track_running_stats=True)
        )
      )
      (conv1_s): tdLayer(
        (layer): SeqToANNContainer(
          (module): ReScaWConv()
        )
        (bn): tdBatchNorm(
          (bn): BatchNorm2d(128, eps=1e-05, momentum=0.1, affine=True, track_running_stats=True)
          (seqbn): SeqToANNContainer(
            (module): BatchNorm2d(128, eps=1e-05, momentum=0.1, affine=True, track_running_stats=True)
          )
        )
      )
      (relu1): LIFSpike()
      (conv2): ReScaWConv()
      (bn2): tdBatchNorm(
        (bn): BatchNorm2d(128, eps=1e-05, momentum=0.1, affine=True, track_running_stats=True)
        (seqbn): SeqToANNContainer(
          (module): BatchNorm2d(128, eps=1e-05, momentum=0.1, affine=True, track_running_stats=True)
        )
      )
      (conv2_s): tdLayer(
        (layer): SeqToANNContainer(
          (module): ReScaWConv()
        )
        (bn): tdBatchNorm(
          (bn): BatchNorm2d(128, eps=1e-05, momentum=0.1, affine=True, track_running_stats=True)
          (seqbn): SeqToANNContainer(
            (module): BatchNorm2d(128, eps=1e-05, momentum=0.1, affine=True, track_running_stats=True)
          )
        )
      )
      (relu2): LIFSpike()
      (shortcut): Sequential()
    )
    (2): BasicBlock(
      (conv1): ReScaWConv()
      (bn1): tdBatchNorm(
        (bn): BatchNorm2d(128, eps=1e-05, momentum=0.1, affine=True, track_running_stats=True)
        (seqbn): SeqToANNContainer(
          (module): BatchNorm2d(128, eps=1e-05, momentum=0.1, affine=True, track_running_stats=True)
        )
      )
      (conv1_s): tdLayer(
        (layer): SeqToANNContainer(
          (module): ReScaWConv()
        )
        (bn): tdBatchNorm(
          (bn): BatchNorm2d(128, eps=1e-05, momentum=0.1, affine=True, track_running_stats=True)
          (seqbn): SeqToANNContainer(
            (module): BatchNorm2d(128, eps=1e-05, momentum=0.1, affine=True, track_running_stats=True)
          )
        )
      )
      (relu1): LIFSpike()
      (conv2): ReScaWConv()
      (bn2): tdBatchNorm(
        (bn): BatchNorm2d(128, eps=1e-05, momentum=0.1, affine=True, track_running_stats=True)
        (seqbn): SeqToANNContainer(
          (module): BatchNorm2d(128, eps=1e-05, momentum=0.1, affine=True, track_running_stats=True)
        )
      )
      (conv2_s): tdLayer(
        (layer): SeqToANNContainer(
          (module): ReScaWConv()
        )
        (bn): tdBatchNorm(
          (bn): BatchNorm2d(128, eps=1e-05, momentum=0.1, affine=True, track_running_stats=True)
          (seqbn): SeqToANNContainer(
            (module): BatchNorm2d(128, eps=1e-05, momentum=0.1, affine=True, track_running_stats=True)
          )
        )
      )
      (relu2): LIFSpike()
      (shortcut): Sequential()
    )
  )
  (layer2): Sequential(
    (0): BasicBlock(
      (conv1): ReScaWConv()
      (bn1): tdBatchNorm(
        (bn): BatchNorm2d(256, eps=1e-05, momentum=0.1, affine=True, track_running_stats=True)
        (seqbn): SeqToANNContainer(
          (module): BatchNorm2d(256, eps=1e-05, momentum=0.1, affine=True, track_running_stats=True)
        )
      )
      (conv1_s): tdLayer(
        (layer): SeqToANNContainer(
          (module): ReScaWConv()
        )
        (bn): tdBatchNorm(
          (bn): BatchNorm2d(256, eps=1e-05, momentum=0.1, affine=True, track_running_stats=True)
          (seqbn): SeqToANNContainer(
            (module): BatchNorm2d(256, eps=1e-05, momentum=0.1, affine=True, track_running_stats=True)
          )
        )
      )
      (relu1): LIFSpike()
      (conv2): ReScaWConv()
      (bn2): tdBatchNorm(
        (bn): BatchNorm2d(256, eps=1e-05, momentum=0.1, affine=True, track_running_stats=True)
        (seqbn): SeqToANNContainer(
          (module): BatchNorm2d(256, eps=1e-05, momentum=0.1, affine=True, track_running_stats=True)
        )
      )
      (conv2_s): tdLayer(
        (layer): SeqToANNContainer(
          (module): ReScaWConv()
        )
        (bn): tdBatchNorm(
          (bn): BatchNorm2d(256, eps=1e-05, momentum=0.1, affine=True, track_running_stats=True)
          (seqbn): SeqToANNContainer(
            (module): BatchNorm2d(256, eps=1e-05, momentum=0.1, affine=True, track_running_stats=True)
          )
        )
      )
      (relu2): LIFSpike()
      (shortcut): LambdaLayer(
        (lambd): SeqToANNContainer()
      )
    )
    (1): BasicBlock(
      (conv1): ReScaWConv()
      (bn1): tdBatchNorm(
        (bn): BatchNorm2d(256, eps=1e-05, momentum=0.1, affine=True, track_running_stats=True)
        (seqbn): SeqToANNContainer(
          (module): BatchNorm2d(256, eps=1e-05, momentum=0.1, affine=True, track_running_stats=True)
        )
      )
      (conv1_s): tdLayer(
        (layer): SeqToANNContainer(
          (module): ReScaWConv()
        )
        (bn): tdBatchNorm(
          (bn): BatchNorm2d(256, eps=1e-05, momentum=0.1, affine=True, track_running_stats=True)
          (seqbn): SeqToANNContainer(
            (module): BatchNorm2d(256, eps=1e-05, momentum=0.1, affine=True, track_running_stats=True)
          )
        )
      )
      (relu1): LIFSpike()
      (conv2): ReScaWConv()
      (bn2): tdBatchNorm(
        (bn): BatchNorm2d(256, eps=1e-05, momentum=0.1, affine=True, track_running_stats=True)
        (seqbn): SeqToANNContainer(
          (module): BatchNorm2d(256, eps=1e-05, momentum=0.1, affine=True, track_running_stats=True)
        )
      )
      (conv2_s): tdLayer(
        (layer): SeqToANNContainer(
          (module): ReScaWConv()
        )
        (bn): tdBatchNorm(
          (bn): BatchNorm2d(256, eps=1e-05, momentum=0.1, affine=True, track_running_stats=True)
          (seqbn): SeqToANNContainer(
            (module): BatchNorm2d(256, eps=1e-05, momentum=0.1, affine=True, track_running_stats=True)
          )
        )
      )
      (relu2): LIFSpike()
      (shortcut): Sequential()
    )
    (2): BasicBlock(
      (conv1): ReScaWConv()
      (bn1): tdBatchNorm(
        (bn): BatchNorm2d(256, eps=1e-05, momentum=0.1, affine=True, track_running_stats=True)
        (seqbn): SeqToANNContainer(
          (module): BatchNorm2d(256, eps=1e-05, momentum=0.1, affine=True, track_running_stats=True)
        )
      )
      (conv1_s): tdLayer(
        (layer): SeqToANNContainer(
          (module): ReScaWConv()
        )
        (bn): tdBatchNorm(
          (bn): BatchNorm2d(256, eps=1e-05, momentum=0.1, affine=True, track_running_stats=True)
          (seqbn): SeqToANNContainer(
            (module): BatchNorm2d(256, eps=1e-05, momentum=0.1, affine=True, track_running_stats=True)
          )
        )
      )
      (relu1): LIFSpike()
      (conv2): ReScaWConv()
      (bn2): tdBatchNorm(
        (bn): BatchNorm2d(256, eps=1e-05, momentum=0.1, affine=True, track_running_stats=True)
        (seqbn): SeqToANNContainer(
          (module): BatchNorm2d(256, eps=1e-05, momentum=0.1, affine=True, track_running_stats=True)
        )
      )
      (conv2_s): tdLayer(
        (layer): SeqToANNContainer(
          (module): ReScaWConv()
        )
        (bn): tdBatchNorm(
          (bn): BatchNorm2d(256, eps=1e-05, momentum=0.1, affine=True, track_running_stats=True)
          (seqbn): SeqToANNContainer(
            (module): BatchNorm2d(256, eps=1e-05, momentum=0.1, affine=True, track_running_stats=True)
          )
        )
      )
      (relu2): LIFSpike()
      (shortcut): Sequential()
    )
  )
  (layer3): Sequential(
    (0): BasicBlock(
      (conv1): ReScaWConv()
      (bn1): tdBatchNorm(
        (bn): BatchNorm2d(512, eps=1e-05, momentum=0.1, affine=True, track_running_stats=True)
        (seqbn): SeqToANNContainer(
          (module): BatchNorm2d(512, eps=1e-05, momentum=0.1, affine=True, track_running_stats=True)
        )
      )
      (conv1_s): tdLayer(
        (layer): SeqToANNContainer(
          (module): ReScaWConv()
        )
        (bn): tdBatchNorm(
          (bn): BatchNorm2d(512, eps=1e-05, momentum=0.1, affine=True, track_running_stats=True)
          (seqbn): SeqToANNContainer(
            (module): BatchNorm2d(512, eps=1e-05, momentum=0.1, affine=True, track_running_stats=True)
          )
        )
      )
      (relu1): LIFSpike()
      (conv2): ReScaWConv()
      (bn2): tdBatchNorm(
        (bn): BatchNorm2d(512, eps=1e-05, momentum=0.1, affine=True, track_running_stats=True)
        (seqbn): SeqToANNContainer(
          (module): BatchNorm2d(512, eps=1e-05, momentum=0.1, affine=True, track_running_stats=True)
        )
      )
      (conv2_s): tdLayer(
        (layer): SeqToANNContainer(
          (module): ReScaWConv()
        )
        (bn): tdBatchNorm(
          (bn): BatchNorm2d(512, eps=1e-05, momentum=0.1, affine=True, track_running_stats=True)
          (seqbn): SeqToANNContainer(
            (module): BatchNorm2d(512, eps=1e-05, momentum=0.1, affine=True, track_running_stats=True)
          )
        )
      )
      (relu2): LIFSpike()
      (shortcut): LambdaLayer(
        (lambd): SeqToANNContainer()
      )
    )
    (1): BasicBlock(
      (conv1): ReScaWConv()
      (bn1): tdBatchNorm(
        (bn): BatchNorm2d(512, eps=1e-05, momentum=0.1, affine=True, track_running_stats=True)
        (seqbn): SeqToANNContainer(
          (module): BatchNorm2d(512, eps=1e-05, momentum=0.1, affine=True, track_running_stats=True)
        )
      )
      (conv1_s): tdLayer(
        (layer): SeqToANNContainer(
          (module): ReScaWConv()
        )
        (bn): tdBatchNorm(
          (bn): BatchNorm2d(512, eps=1e-05, momentum=0.1, affine=True, track_running_stats=True)
          (seqbn): SeqToANNContainer(
            (module): BatchNorm2d(512, eps=1e-05, momentum=0.1, affine=True, track_running_stats=True)
          )
        )
      )
      (relu1): LIFSpike()
      (conv2): ReScaWConv()
      (bn2): tdBatchNorm(
        (bn): BatchNorm2d(512, eps=1e-05, momentum=0.1, affine=True, track_running_stats=True)
        (seqbn): SeqToANNContainer(
          (module): BatchNorm2d(512, eps=1e-05, momentum=0.1, affine=True, track_running_stats=True)
        )
      )
      (conv2_s): tdLayer(
        (layer): SeqToANNContainer(
          (module): ReScaWConv()
        )
        (bn): tdBatchNorm(
          (bn): BatchNorm2d(512, eps=1e-05, momentum=0.1, affine=True, track_running_stats=True)
          (seqbn): SeqToANNContainer(
            (module): BatchNorm2d(512, eps=1e-05, momentum=0.1, affine=True, track_running_stats=True)
          )
        )
      )
      (relu2): LIFSpike()
      (shortcut): Sequential()
    )
    (2): BasicBlock(
      (conv1): ReScaWConv()
      (bn1): tdBatchNorm(
        (bn): BatchNorm2d(512, eps=1e-05, momentum=0.1, affine=True, track_running_stats=True)
        (seqbn): SeqToANNContainer(
          (module): BatchNorm2d(512, eps=1e-05, momentum=0.1, affine=True, track_running_stats=True)
        )
      )
      (conv1_s): tdLayer(
        (layer): SeqToANNContainer(
          (module): ReScaWConv()
        )
        (bn): tdBatchNorm(
          (bn): BatchNorm2d(512, eps=1e-05, momentum=0.1, affine=True, track_running_stats=True)
          (seqbn): SeqToANNContainer(
            (module): BatchNorm2d(512, eps=1e-05, momentum=0.1, affine=True, track_running_stats=True)
          )
        )
      )
      (relu1): LIFSpike()
      (conv2): ReScaWConv()
      (bn2): tdBatchNorm(
        (bn): BatchNorm2d(512, eps=1e-05, momentum=0.1, affine=True, track_running_stats=True)
        (seqbn): SeqToANNContainer(
          (module): BatchNorm2d(512, eps=1e-05, momentum=0.1, affine=True, track_running_stats=True)
        )
      )
      (conv2_s): tdLayer(
        (layer): SeqToANNContainer(
          (module): ReScaWConv()
        )
        (bn): tdBatchNorm(
          (bn): BatchNorm2d(512, eps=1e-05, momentum=0.1, affine=True, track_running_stats=True)
          (seqbn): SeqToANNContainer(
            (module): BatchNorm2d(512, eps=1e-05, momentum=0.1, affine=True, track_running_stats=True)
          )
        )
      )
      (relu2): LIFSpike()
      (shortcut): Sequential()
    )
  )
  (avgpool): SeqToANNContainer(
    (module): AdaptiveAvgPool2d(output_size=(1, 1))
  )
  (fc): SeqToANNContainer(
    (module): Linear(in_features=512, out_features=10, bias=True)
  )
)
08/14 08:52:24 AM | training from scratch
08/14 08:52:24 AM | learning_rate: 0.001
08/14 08:52:26 AM | Epoch[0](0/1563): Loss 2.2840 Prec@1(1) 15.62
08/14 08:52:34 AM | Epoch[0](50/1563): Loss 2.2858 Prec@1(1) 13.85
08/14 08:52:43 AM | Epoch[0](100/1563): Loss 2.2543 Prec@1(1) 14.94
08/14 08:52:51 AM | Epoch[0](150/1563): Loss 2.2330 Prec@1(1) 16.06
…
